cnn.pt (torch, 322215 bytes, 8 tensors)

conv0.1.weight f4 [8, 1, 3, 3]
00000000: 0f74 ec3e 697f bc3e aec7 0bbf d6bd b23e
00000010: 22a0 b2be b57d dcbe 700f 083f 6b18 8bbe
00000020: 5add f83d 4eb3 063e 4e83 e93c 4bde 63be
00000030: 0850 acbe 652e 92bd 1613 0ebd 7371 e8be
00000040: 8e94 82be 7030 b1be 6b2f d0be 5d4a f1be
00000050: 47a5 c4be d7e4 06bd 373e 35bd 7129 34bd
00000060: d255 e13e 5dd5 053f 23b5 e13e 83b5 8b3d
00000070: 9107 543e 1131 163f e9f3 f73d 708b 95be
00000080: e988 f83e b84e 7ebe 3e07 09bf d95d 873c
00000090: bce3 08be abae f33e d256 1a3f 8f64 8f3e
000000a0: 3e01 d4bd f648 3a3d dce4 63be b03c c8be
000000b0: 7882 27bf a44a e1be 8c9c 67be 3f46 88bd
000000c0: e019 60be 7f3a 90be 5965 d2bd 18a0 20be
000000d0: b902 bebe 5623 0cbf 2d93 8ebe 3b1a 2e3e
000000e0: e1bc eebe 13ae 883e 930e a53c 36d6 323e
000000f0: a74c 043f 3fbe 1f3d ceab 8cbe fd93 07be
00000100: 2e10 9bbe 08e2 a53e f102 bcbe d085 edbe
00000110: 7cf5 2d3f ebd1 c9be b4ee d23d 52f0 2e3f
0.46182296 0.36815956 -0.5460156 0.34910458 -0.34887797 -0.43064657 0.53148556 -0.27167067
0.121515945 0.13154337 0.028504994 -0.22252767 -0.3365481 -0.07137755 -0.03468617 -0.45399055
-0.25503963 -0.34607267 -0.40661177 -0.47127047 -0.38407347 -0.032933082 -0.044248786 -0.043984834
0.44010788 0.5227869 0.4408351 0.0682173 0.20706011 0.5866862 0.12107069 -0.29207945
0.48541954 -0.24834716 -0.53526676 0.016524242 -0.13368124 0.475942 0.6028873 0.28006408
-0.103517994 0.045479737 -0.22255272 -0.391088 -0.65433455 -0.4400226 -0.22618312 -0.066540234
-0.2188487 -0.2816963 -0.10273237 -0.15686071 -0.37111452 -0.5474142 -0.2784666 0.17002194
-0.46628478 0.26695308 0.020148551 0.17464527 0.5167946 0.038999792 -0.27474827 -0.13240047
-0.30285782 0.3239901 -0.36720994 -0.46391153 0.67952704 -0.39417967 0.10299435 0.6833545

conv0.1.bias f4 [8]
00000000: 42f3 773e 9dca 0b3e a3b7 2f3d 18cc bb3e
00000010: d810 21bd 0d2a 193e c56f 1d3e 68b4 cd3d
0.24213889 0.1365151 0.04289974 0.3667915 -0.039322704 0.14957447 0.15374668 0.100441754

conv1.1.weight f4 [64, 8, 3, 3]
00000000: 2279 c9bd 63e6 85bb 14ab 553e 5489 82bd
00000010: 9337 e2bd 93b1 ef3c 364e 02be df92 1a3c
00000020: 642c f3bb 44aa 883d 6be3 13bd 5fa9 58be
00000030: d21b 0e3e ccfb 30be 8792 b4bd 4e47 253d
00000040: 2d3a 97bc d1ef 81be b387 243c 57c2 83bd
00000050: 3b9b edbc 78e3 683e 9102 ffbd f93b d3bd
00000060: 1c1b 003e 2b50 31be 359f a33c fb1d 403e
00000070: 1ef3 a43e ab0a ba3d 05d2 05be b12d 003e
00000080: 4e5c 233d 8e54 d43c f5e2 813e 2563 043e
00000090: 4ffb 883e 7335 243d 8f97 fbbd ba32 cbbe
000000a0: 52e0 75be 3324 f1bc 8fc7 073e 370a 8ebc
000000b0: 03e5 40be 3022 cdbc 3522 d13d 38f8 37be
000000c0: 2891 dc3c cb3e d9bd 1caa bbbd f211 6ebe
000000d0: 1b68 573c b543 b4be b957 e33b 66c8 d2bd
000000e0: 0ea7 6f3d 3cda e7bd 4d0a 88bd 6ddc 413e
000000f0: ff31 403e 1a49 ffbd 6639 5c3e 954a e93d
00000100: 3c22 873e 58f7 e1bd af11 963d 6d36 c63d
00000110: d4ff acbd 3b57 c8bd 883c b33d d9b1 80bd
00000120: 34c0 d23d 3a54 a7bc 2f13 a73d 267e 27be
00000130: 513b 1f3e afaf 5f3e 51d5 26be 1511 c4bb
00000140: 606d d83d ebb2 e43c f5ef 88ba 7593 393d
00000150: 8f4b 8abd fdcf 24be ef3c 033e a391 acbd
00000160: 1622 8bbe 078e 6ebd 4b38 61bc d2c1 933d
00000170: 91e4 59bd 6b2a a73d 600c 17be 13a3 39be
00000180: e3e9 94bd 9ba2 abbd 8c7b a63e 36d8 c33a
00000190: b012 3abe b5c5 3dbd da6f 9cbd fa96 1ebd
000001a0: 6ffc 823d ed38 043c 5dc2 cabd 7e9f 2cbe
000001b0: 0d46 cfbe 958b 19be 92eb 573e 2a59 d1be
000001c0: 8c87 94bd 1f8c 263e 0506 23be ae3e 8cbe
000001d0: a8ec cbbe 91c6 973d d042 ca3a cdee 433c
000001e0: 3cfd d5bd 2b5d 82bd a652 ac3d 8869 2bbe
000001f0: 8e13 2cbe 1646 36bd c249 463d 4513 c73d
00000200: 5ee6 f93d c6eb febd 479f 893d 0467 68bd
00000210: 7aea d73d 32e5 84bd ebff 423e ac7e 193e
00000220: 96b0 ef3d cf88 06bd 3779 273e 7962 f93d
00000230: aaea 97bd 4eb3 fe3d 235f 3ebe 6ed6 18bb
00000240: 8103 c93d f9db a73d 3cdd 893d c488 983d
00000250: 3ba6 443e d3c8 193e 8329 87bd 2ca9 813d
00000260: 4b5d 283e 243b 90bc 8d6c b9bd 78c5 cb3c
00000270: a40e 8b3d e751 1bbe 7152 ab3c 78d3 db3d
00000280: c567 1abe e942 0ebe 4de6 a73d 4404 8fbd
00000290: 1d19 94bd 4fad e0bd a8f8 19be 41ff b2be
000002a0: 534f 2abe 631b a7bd 07b3 8d3d e59a 3f3d
000002b0: 2e6c 63bd 27bf d83d 677e c7bc a501 81bd
000002c0: c1e7 e83d f805 233e 1c62 5c3e 16d4 17bd
000002d0: 03d0 413d acb3 4dbd fad0 883e c365 5c3c
000002e0: 0724 cebc 7023 1fbe defb 38be 1019 07be
000002f0: afdc cbbd 468b 6fbb 14ff e4bd 3141 2ebe
00000300: 7fff ffbd 2876 b6bc 7bb9 893d 91ed 683d
00000310: c832 5abd 9f3d 373d 3d9b 0e3d ece7 9d3d
00000320: 582b 1cbd d842 32bd 0d40 9c3d a8e9 853c
00000330: 4b8a bebd 8be3 5b3d c9d7 5c3e 8a52 fbbd
00000340: 7291 293e 8bea 093e f80f 223d 98ae 95bc
00000350: 0a35 5f3d 5edd 04bd d1b7 d1bc a0f3 28bb
00000360: 625f 86bd f0a2 d23d 0e35 6b3e 21ae e23d
00000370: 2162 ba3d 394d ccbd c8e8 543e edea d5bd
00000380: a53a b8bc 41da 08bc 115a 0c3d 5802 a43d
00000390: 3118 0abb 9f4a de3d 98e4 b2bd 0e4b d13c
000003a0: 1dc4 113e 1b95 5b3c c02d 973d 9b32 58be
000003b0: c071 a2be e2f8 d03c c0fc 0bbe a56f b63b
000003c0: 510a 84bd 86ab 443d 0d15 a53c 0a81 ad3d
000003d0: 85fb 153e ab9e b6bd a57d 293e d80f 83ba
000003e0: 8ad0 4ebe 120d 713d 289c 4ebd 7343 71be
000003f0: 659a da3d a8e9 aa3d dd73 ee3d 8aaf af3e
-0.098375574 -0.004086302 0.20866042 -0.063738495 -0.11045756 0.029259479 -0.12725148 0.009434431
-0.0074210633 0.066731006 -0.036105555 -0.2115836 0.138778 -0.17283553 -0.088170104 0.040351205
-0.018460358 -0.25378278 0.010042119 -0.06433552 -0.029004684 0.22743022 -0.124516614 -0.10314173
0.12510341 -0.17315738 0.019973377 0.18761437 0.32216734 0.09084066 -0.13068397 0.1251743
0.03988295 0.025919225 0.25368467 0.12928446 0.26754233 0.040090036 -0.12284767 -0.3968714
-0.24011353 -0.029436206 0.1325972 -0.017338855 -0.18837361 -0.025040716 0.102116026 -0.17965782
0.026924685 -0.1060768 -0.09163305 -0.23249033 0.013147379 -0.35207906 0.0069379476 -0.10292129
0.058508925 -0.11320922 -0.0664259 0.18931742 0.18769072 -0.12465115 0.21506271 0.113911785
0.26393306 -0.11033505 0.07327592 0.0967835 -0.08447233 -0.09782263 0.0875178 -0.06283922
0.10290566 -0.020425905 0.08157956 -0.16356716 0.15549971 0.21844362 -0.16292311 -0.0059834816
0.105677366 0.027917346 -0.0010447489 0.04530664 -0.06752693 -0.16094966 0.12816213 -0.084262155
-0.27174443 -0.058240917 -0.013746331 0.07214703 -0.053196494 0.081623875 -0.14750814 -0.18128614
-0.07271173 -0.08380624 0.32516134 0.0014941755 -0.18171191 -0.046331126 -0.076385215 -0.0387182
0.06395804 0.008070213 -0.09900353 -0.16857716 -0.40483132 -0.14994653 0.21085957 -0.4088834
-0.07252416 0.1626439 -0.15920265 -0.2739157 -0.39828992 0.074109204 0.0015431289 0.01195879
-0.10448691 -0.06365427 0.084142014 -0.16739476 -0.16804335 -0.044500433 0.048410185 0.09720472
0.12202142 -0.12447314 0.06719833 -0.05673887 0.1054277 -0.06489028 0.19042937 0.14989728
0.11703603 -0.032845315 0.16354834 0.12176985 -0.074178055 0.124365434 -0.1859098 -0.002332117
0.098151214 0.08196253 0.0673165 0.07447961 0.19204037 0.15018015 -0.065997146 0.06331095
0.16441838 -0.017606325 -0.090539075 0.024874434 0.06789902 -0.15167962 0.020913335 0.10733694
-0.15078647 -0.13892712 0.08198223 -0.069832355 -0.072313525 -0.10970556 -0.15036261 -0.34960368
-0.16631822 -0.081595205 0.069189124 0.04677858 -0.05552309 0.105833344 -0.024352266 -0.06299142
0.113723285 0.15920246 0.21521801 -0.037067495 0.047317516 -0.050220177 0.26721936 0.013451996
-0.025163664 -0.15540862 -0.1806483 -0.13193154 -0.099542014 -0.003655152 -0.11181465 -0.17017056
-0.12499904 -0.022273138 0.06724831 0.056867186 -0.053271085 0.0447365 0.034816016 0.07710251
-0.038127273 -0.04352078 0.07629404 0.016346768 -0.09303721 0.0536838 0.2156669 -0.122716025
0.16559389 0.13468377 0.03956601 -0.01827173 0.05449394 -0.032437675 -0.025600346 -0.0025779977
-0.065611616 0.10284984 0.22969458 0.11068369 0.09100748 -0.099756666 0.20791924 -0.10445199
-0.022488901 -0.008352817 0.03426558 0.080082595 -0.0021071548 0.108540766 -0.08735007 0.025548484
0.14234968 0.013402249 0.07381773 -0.21113054 -0.3172741 0.025509302 -0.13670635 0.0055675083
-0.0644728 0.04801514 0.02015164 0.08471878 0.14646728 -0.08916982 0.16551836 -0.0009999229
-0.20196739 0.058850355 -0.05044189 -0.23560886 0.1067398 0.08345348 0.11643193 0.34313613

conv1.1.bias f4 [64]
00000000: 5dca 7c3d b128 943d 34d6 ed3d 6237 fdbd
00000010: 876b e23c b0a4 2e3d 3b59 cfbd e024 023e
00000020: 235c c9bd 8a7c 00be a038 de3b 8fe7 513d
00000030: 4d3c f1bd 4ebe 9cbd 5eb4 ad3d 79aa a73d
00000040: 1aeb 5abb 4075 e2bd 1a14 243b 1d3a 5dbd
00000050: 4493 8f3d 6338 9e3c d4c1 d33c 620d 193d
00000060: d41f b23d 5085 d9bd 7a7a 5d3c 3ffa 95bd
00000070: 181c 1c3e 8d95 d33d 126a 453b b3f5 5a3d
00000080: d4d6 2abd 3989 7f3d 8694 2f3d e4f3 f53d
00000090: e5dd 2ebd ddcc c43d 7a0d debd 35b5 013e
000000a0: f580 043e 05c5 593d 60bd bfbd ab87 8f3b
000000b0: 9037 cfbb 17d1 b2b9 2e36 9ebd 0d41 13be
000000c0: b562 c93d dad1 c83d 7411 25bd 71a2 b13c
000000d0: e3a0 43bd 64eb 0b3e 97e4 bf3b 17d1 c53d
000000e0: 57d4 6f3d 2de7 1fbd 4de1 ba3d a350 0c3c
000000f0: 6900 8fbd 4ab1 433d 9916 fbbd bf47 333c
0.061716426 0.07234324 0.11613122 -0.12364079 0.027639164 0.042637527 -0.10124441 0.12709379
-0.09832027 -0.12547508 0.0067816526 0.051246222 -0.117790796 -0.07653485 0.08481668 0.08186812
-0.0033404292 -0.1105752 0.0025036396 -0.0540105 0.070105106 0.019313997 0.02584926 0.03736628
0.08697477 -0.106211305 0.01351797 -0.07323121 0.15245092 0.10331259 0.0030123037 0.053456973
-0.041708782 0.062386725 0.042866252 0.12009409 -0.042692084 0.09609387 -0.10842414 0.12666781
0.12939818 0.053166408 -0.09362292 0.0043801866 -0.0063237622 -0.0003410659 -0.07725178 -0.14380284
0.0983328 0.09805651 -0.040299848 0.021683903 -0.047760855 0.13664013 0.0058561075 0.09659021
0.058552112 -0.039038826 0.09125004 0.008564147 -0.069825 0.047776498 -0.122601695 0.010942399

conv2.1.weight f4 [128, 64, 3, 3]
00000000: 5d50 5abd 4fa4 dfbd b4f6 e8bd 2d10 4fbd
00000010: c4f5 0cbd a026 20bd fa06 543c 6c83 41bb
00000020: fcfe 243e 47a4 223a 0fcf 3dbd 34e2 bebc
00000030: 1a72 c83a c07c 5e3d 0d3a 3cbd 8649 97bd
00000040: 8d8d 423d 49d5 a13d c6dd 863d 4d82 31bd
00000050: 0746 4fbd b7ed 66ba 463c 323d efde 833c
00000060: c418 043c 54f2 623d c6ca c33d 3cee fa3d
00000070: 356a 983d d37c 9c3d ad72 b73d f559 693d
00000080: c162 a33d b034 cbbc ec87 97bd 83ba 4cbc
00000090: 5715 6fbd b8ae d9bc c465 14bd 2e68 88bd
000000a0: 6003 d3bd dd5a 1bbc adf7 8e3d b687 9b3c
000000b0: cc7d 9abc 89c3 c83c 74fd 793d 918c b9bd
000000c0: e917 01bc 888d 713d d67a 353d 8013 333d
000000d0: 8d24 033d cbc5 ab3d 1886 823d 8006 1a3d
000000e0: 1406 02bb 2774 20bd 6fbb 8e3c a418 b5ba
000000f0: 0917 0a3c 27a4 48bc ca0a 513c a2c5 fbb9
00000100: 5838 5ebd d6fa f03c d8a3 c2bc cc37 173c
00000110: 9fab 29bc 7683 adbd 0c09 d7bc 6b81 a23d
00000120: f5f3 003e 5705 3c3d 0c6b 2d3d f731 c73d
00000130: 7bc4 2b3d 17d6 6c3c a180 a3bd 1625 9abd
00000140: 320b 7a3c 73b1 833d a514 fa3c b8b2 4bbd
00000150: f9f9 f83b 980f 4dbd 3190 d73b 20c0 a43d
00000160: 337f 613d b379 71bd 776f 143d 913c 6c3d
00000170: 8d15 aebc 586a 05bd 6ced 6dbc d18d b43c
00000180: de2c f43d 4b71 963c fc44 6dbd 1489 9b3d
00000190: 1c08 b83d 3675 b23b 1fc5 ae3d 6c87 c13d
000001a0: 80fc 173d 916e 6fbd 918c c1bc 36d2 813d
000001b0: 0d48 cabc f2e7 0bbd 668b 16bd a3c1 c83a
000001c0: 74ea 0a3b 4da8 8a3d c854 3f3d 7a0b d13c
000001d0: 1d0a 3fbc 02c8 bebc 95a1 bb3c f60c 093c
000001e0: 618e a53c dca2 5fbc c1e3 5d3d 0a9e cdbd
000001f0: 4c2f feba 2ab2 f73d 1fc0 19bd e39c 0bbe
00000200: 6bd4 8fbd 6ecc b43d 5dfe 9bbd 1b65 7e3d
00000210: 415a 85bc 6d4d 873d 2cf2 863d 2971 c23c
00000220: 5f63 e13b 32e9 f6bc 6fd0 fcbd f2f3 e6bc
00000230: 8f05 06be bfe1 4c3e 8747 983d 1c9e 9cbb
00000240: 45be 9d3c b20f 7c3c be27 edbc d169 26bc
00000250: 9cd9 743d c74f bf3c 7136 81bd 0d53 95bc
00000260: c7a1 dd3d bd89 56be 6bd0 53bd b13e a43c
00000270: eaf4 04bc 776c b5bc ff4f 5b3d 744e 14bd
00000280: 1acb be3d 0c2d 143e 4878 d73c 3c9d a73c
00000290: af31 c7bd f788 c0bd ce06 bd3d 607d 473d
000002a0: b1f6 8dbc c3cd c6bc 9b7e 0cbd f128 f0bc
000002b0: fcba a43d a9e7 e8bd 1339 9abd dc48 e9b9
000002c0: 90b2 d33d f98e 11bd 15d5 82bc fe55 243d
000002d0: 6cd4 a63c ac9b 10bc fc11 3bbc 2a23 c9bc
000002e0: 742f 56bd b873 04be 8f8d 06be 5ea5 c33c
000002f0: 02d3 1f3e ec5c 02bd 9d54 133c 21ab c03c
00000300: 7556 dbbc d325 cdbc 532b 1bbe 9552 d93d
00000310: 79a6 cabd 32b0 51be d188 513d 2ac2 3abd
00000320: ddf5 763b 3d37 12bd bd53 e4bc c016 88bd
00000330: d642 82bc 0a07 673d 7598 d13d 9c8c 21bc
00000340: b7af e33c 7a70 e4ba ee31 2fbc ba9a 913c
00000350: 8b41 9abd d2d2 e23d 27ad 453d 0735 24bc
00000360: 9ce8 c43d 373d 4d3c ced4 28bb e32c 403d
00000370: e5cd 88bb e216 92bd e4af 34bd af47 9bbd
00000380: 51bb 273d 8cef ee3d 9439 cc3d 3bb3 1f3d
00000390: 1ab5 903c 75ba d53c 3143 dfbc ed29 19bd
000003a0: af53 41be 61a4 d1bd c15f c2bb 8930 2abd
000003b0: 4cd0 1cbd d162 a9bc 191a 31bd a343 9c3d
000003c0: b37c 863d 5eb6 d1bc d5cc c63d 4e58 cebd
000003d0: 350e 1ebd f227 77bd cdfc 89bc 9c82 95bc
000003e0: a486 fb3c 6978 83bd ee0a 1b3d d5de 443e
000003f0: 858c 0e3a baa1 34bd e852 06bd 61e9 023d
-0.053299297 -0.10920011 -0.1137518 -0.050552536 -0.034414068 -0.039099336 0.0129411165 -0.0029527796
0.16112894 0.0006204289 -0.046340045 -0.023301221 0.0015292794 0.05431819 -0.0459538 -0.0738707
0.047498275 0.07902009 0.06585269 -0.043337155 -0.050603893 -0.0008809226 0.043514512 0.016097514
0.008062545 0.055406883 0.0956016 0.12252471 0.074421324 0.07640996 0.089574195 0.056970555
0.0797782 -0.024805397 -0.07398972 -0.01249564 -0.05836996 -0.02657257 -0.036229864 -0.06660496
-0.10303378 -0.009482113 0.06980834 0.01898561 -0.018858813 0.0245073 0.061032727 -0.09060014
-0.007879236 0.058972865 0.0443066 0.04371977 0.03201728 0.083873354 0.063732326 0.037603855
-0.0019840049 -0.03917327 0.01742336 -0.0013816548 0.008428344 -0.012246168 0.01275892 -0.000480217
-0.054252952 0.029416483 -0.023759767 0.009229612 -0.010355859 -0.0847234 -0.026249431 0.07934841
0.12593062 0.04590353 0.042338416 0.09726327 0.041935425 0.01445534 -0.079835184 -0.07526605
0.015261458 0.0643033 0.030527422 -0.049730986 0.0075981584 -0.0500637 0.0065784683 0.080444574
0.055052947 -0.058953952 0.036239114 0.057674948 -0.02125051 -0.03257212 -0.014521938 0.02204028
0.1192262 0.01836457 -0.057927117 0.07594505 0.08985922 0.0054461015 0.085336916 0.09449658
0.037106037 -0.058455054 -0.023626598 0.06338923 -0.02469256 -0.034156747 -0.036754034 0.0015316497
0.0021196874 0.06770382 0.046711713 0.025518168 -0.011660126 -0.02328873 0.022904197 0.008364907
0.020209493 -0.013649669 0.05417228 -0.10039909 -0.0019392758 0.12094529 -0.037536737 -0.13634066
-0.070229374 0.08828054 -0.07616875 0.06210814 -0.016278388 0.06606565 0.06589159 0.0237356
0.006878301 -0.030140493 -0.12344443 -0.028192494 -0.13088058 0.2000799 0.07435518 -0.0047795903
0.019255767 0.015384601 -0.028949615 -0.010157065 0.05977784 0.02335347 -0.06309212 -0.018228078
0.10821872 -0.2095098 -0.051712435 0.020049425 -0.008115033 -0.022146447 0.053543087 -0.03620763
0.09316082 0.14470309 0.026302472 0.020460717 -0.09726273 -0.09401124 0.092298135 0.04870355
-0.017329546 -0.024268037 -0.034300428 -0.029316397 0.08043477 -0.11372311 -0.07530417 -0.00044495508
0.103367925 -0.03553674 -0.015970746 0.04012107 0.020364963 -0.008826178 -0.011417862 -0.0245529
-0.05229135 -0.12934768 -0.13139938 0.023882564 0.15607837 -0.0318269 0.008992341 0.0235191
-0.026774624 -0.02504245 -0.15153246 0.106114544 -0.098950334 -0.2047737 0.05115587 -0.045595326
0.0037683167 -0.03569721 -0.02787196 -0.06644964 -0.01590101 0.056403197 0.10234157 -0.009860184
0.027793748 -0.001742854 -0.0106930565 0.017773975 -0.075320326 0.11075367 0.048260834 -0.010022408
0.09614679 0.012526802 -0.0025761607 0.046917807 -0.004174935 -0.07133271 -0.044113055 -0.07582032
0.040950123 0.11666784 0.0997192 0.038989287 0.017664481 0.026089886 -0.027253719 -0.0373935
-0.18879579 -0.10236431 -0.005931825 -0.041550193 -0.038284585 -0.020677002 -0.04323778 0.07630088
0.06566753 -0.025599655 0.09707037 -0.100754365 -0.038587768 -0.06034083 -0.016844178 -0.018250756
0.03070385 -0.06419451 0.03785222 0.19225629 0.0005437809 -0.044099547 -0.03279391 0.03196085

conv2.1.bias f4 [128]
00000000: b6ac 4ebb 582b 383c 74f1 09bc 91e8 4d3d
00000010: 2a49 71bd 455a 583c 0f35 51bb 525d 38bd
00000020: fa9b 3bbd 375e 75bc 6581 6dbd e521 803c
00000030: af5a 1a3d 9d64 bdbc d1b7 80bc 9bd8 363d
00000040: 92f2 94bc a8cb 09bb 0478 c23c b492 63bd
00000050: edb7 1fbd 0250 12bd 928e 9ebc 366a 6f3d
00000060: 6377 6dbd 818e af3b 30a3 30bc ef28 1e3d
00000070: e6e7 0b3d db94 193b 3e0a 3ebd bfb9 02bc
00000080: 1fe4 efbc 1da0 1cbd d6ff f53c e76e b5bc
00000090: 6ad6 3b3c 9ad2 7d3d 6755 fbbc 5067 1fbd
000000a0: 4d82 d3bc 6a6c 163d 3950 a23c 5956 c4ba
000000b0: a63d 69bc 00c5 e03c 8493 69bc 1eda bcbb
000000c0: aeb3 453b 24a4 35bd c843 e5bc 4bb9 6abd
000000d0: 74ee bf3c d46f 22bc 4fae 30bd 1908 9cba
000000e0: 53b2 80ba 02d6 e53b eb65 95bb 11da d23c
000000f0: f4d0 5ebc 3aae 35bd 6b01 423d 42ec 43bd
00000100: 96c9 b6bc 4301 063d 6d0e 59bc b903 9b3c
00000110: dd48 323d 4c2f 54bc 914a 813c dcf4 08bc
00000120: ce88 06bd 22a0 8abc 6b84 a13c cfd6 cabc
00000130: f99f febc 9773 13bd b053 0cbd 0f59 303b
00000140: 8971 35bc cdf1 e53c 5c05 f23c 30eb 763c
00000150: 4381 76bc f611 ceba 6090 9c3c da86 38bd
00000160: 9408 1ebd f52f 35bd 1687 d9bb 6afd 1bba
00000170: dac6 e73c acba 0ebd 1089 04bd 09b2 03bd
00000180: 1257 53bc 8894 e43b cd57 9fbc e16e b13c
00000190: bf8e 67bd e501 953b affb 533c 96e7 b8bc
000001a0: 3d4c 00bd dcdd 29bc 420e bcbc 8620 0dbd
000001b0: 866b 193b 3bda 5bbd d516 963b c356 da3c
000001c0: cd2c 16bc b207 5abc df31 d0bc 475f ddbb
000001d0: 6f45 7e3c 9eb2 b93c 4321 0bbd e31b 8dbc
000001e0: 3937 45bc 165c 543c 5278 ae3c d02e 15bb
000001f0: 9766 33bc 6a40 9dbc 2fff 0bbb c2aa ec3b
-0.003153605 0.011240803 -0.008419383 0.05027062 -0.058907665 0.013205116 -0.0031922495 -0.045010872
-0.045803048 -0.014976076 -0.05798473 0.015641162 0.03768414 -0.023119265 -0.01571265 0.044640165
-0.018182073 -0.002102593 0.023738869 -0.05555983 -0.038993765 -0.035720833 -0.019355092 0.0584509
-0.057975184 0.005357564 -0.010781094 0.038613256 0.034156702 0.0023434672 -0.046396486 -0.007978856
-0.029283581 -0.038238633 0.030029219 -0.022147609 0.0114646945 0.061968423 -0.030680371 -0.038916886
-0.025818968 0.036724485 0.019813644 -0.0014979347 -0.01423589 0.027437687 -0.014256362 -0.0057633063
0.0030166912 -0.04434599 -0.027986422 -0.057305615 0.023429133 -0.009914357 -0.043134984 -0.0011904269
-0.000981877 0.007014037 -0.0045592687 0.025738748 -0.013599623 -0.04435561 0.047364634 -0.047832735
-0.02231292 0.032716047 -0.013248068 0.018922674 0.04352652 -0.01295073 0.015782626 -0.00835916
-0.03284531 -0.01692206 0.019716462 -0.024760632 -0.03108214 -0.035998907 -0.034259498 0.0026908552
-0.011074432 0.028069401 0.029543571 0.0150707215 -0.015045467 -0.0015721906 0.019111812 -0.04505048
-0.0385824 -0.04423519 -0.006638418 -0.00059505424 0.028293062 -0.034845993 -0.032357275 -0.03215221
-0.012899177 0.006975714 -0.019451046 0.021659316 -0.056532618 0.004547345 0.012938424 -0.022571366
-0.031322706 -0.010367837 -0.022956017 -0.034454845 0.0023410036 -0.053674918 0.0045803585 0.0266527
-0.009165955 -0.013307499 -0.025414405 -0.0067557427 0.015519484 0.02266818 -0.033967268 -0.017225211
-0.012037092 0.012961408 0.021297608 -0.0022763498 -0.010949752 -0.019195754 -0.0021361818 0.0072225044

lin_layer.1.weight f4 [10, 128]
00000000: 2245 11be d16e e83d 45d2 8cbd 95fd a7bc
00000010: 8fbe 353c cb12 e3bc bf17 a53d 5427 fc3d
00000020: 226e ee3d efa2 c526 e9cf bd3d 75db f0bd
00000030: 13a7 053d 5cfe 81bd 611a 823d de34 87be
00000040: f094 8bbc 36a4 78bc 0cc5 79bc 3d4e a93d
00000050: 017e 903d af95 30be a630 8abd af6c 3abd
00000060: bcf7 353e 38a7 04bc a6e5 30bc 17bc 833d
00000070: 021a 1dbc e41f 1c3e a64f ed3c 278e 12be
00000080: c4de 7dbc a7de 1cbd 1477 5f3d ba97 7ebd
00000090: 47c0 cf3d 7d01 713d fc38 6f3d 0e5d bbbd
000000a0: d657 503d 5c17 9c3c 9aac 433d d55e 403d
000000b0: 86d5 9b3d 11ed 2dbc 80ae d3bc 249f a4bd
000000c0: 61f8 6f3d 3379 853d 1dc0 2e3d f83e e5bd
000000d0: cdff 2e3d a10f 273e 27d7 03be eaf5 3d3d
000000e0: d46b dd3b 9ed9 6a3b 25d9 203b 386d d33d
000000f0: d175 56a8 b068 583d 187b 11be 4fc9 cfbd
00000100: 4a57 9cbd 0fe6 66bd 6e72 52bd 7c29 88bd
00000110: 8118 9a3d 6f7a 90bc 6b58 08be 3142 29be
00000120: e479 1e3e 8303 15be c642 943d bd64 ed3d
00000130: b433 1ebe eaba 8634 fb28 8abd de5a cd3d
00000140: 50f3 f9bd e391 25be f0a4 923d dfeb ab3d
00000150: af6f a53c 3b84 e5bd 1888 1bba 9e17 bebd
00000160: 7c69 013e cff4 96bd f372 1fbb 9a32 0ebe
00000170: 43f2 56bd 57db 25be 0b11 b9bd ff93 4f3d
00000180: f694 94bd 404d d93d 8165 2d3c 2654 16bd
00000190: 0ba3 3bbe e3d3 483d 64e0 0fbe 583b 17bd
000001a0: 888b a13d 367f af3d 6015 8b3d d4f8 37be
000001b0: fab0 1fbe 3f2b 0dbe 1102 f0bc 870b 1fbd
000001c0: 37b6 e83c 30d7 a2bd 433d c8bd 7dbe 5f38
000001d0: 96b4 c8bd 5e1e 153e 2597 0dbe 1b51 22be
000001e0: a6cd bf3b fdda d53d 547b 2a3c 4920 833d
000001f0: 6506 9c3d ff62 f3bd 84f1 14bc bd12 6abd
00000200: 3892 febd 09b2 a1bd cdad a43c f32d 773d
00000210: 41fc 81be ccea a03d 8295 cdbd 0d6c 5dbd
00000220: 836a c43c 9821 c1a6 d224 84bd 6dd3 10be
00000230: 78ac 13bd eef5 0dbd e9b8 183d b207 af3d
00000240: 00f2 5bbc 65b6 25bd 7253 103e 0dfe febd
00000250: 0e9f f6bd e2d0 4fbd d52d 8c3d 6a86 653e
00000260: 748d b7bc fedc 7a3c bc7d 63bc 9c60 823d
00000270: 5c7c 61be c971 43be 5572 2dbe 1712 d2bd
00000280: 3030 3f3e b358 403d 3b90 6e3d 4eaf ab3d
00000290: 16c8 503e f7d0 a53d 05c9 76be 44ea f8bd
000002a0: 05de 833c 8e3c bc3d ed6e 81bc 0656 c2bd
000002b0: f877 053e 8204 77bd 7331 123d addc 843d
000002c0: ba7e 03bd 90a8 8bbd dfb1 dabd 591d 68bd
000002d0: 8244 3a3d f029 93bd 46d1 173d 19f6 25bd
000002e0: f94e 623e 77d5 cf3d aa49 da3d 6b40 c3bd
000002f0: e98d eaa3 0ca1 263d 4a76 153e 6bb3 fbbd
00000300: c131 91bd aaf1 2c3e 3809 233d 5c7e 5c3d
00000310: 9ad3 08be 9a3d 9cbd e3d5 aa3c 6378 bc3d
00000320: 33dc 24bd 4057 cdbc b5d4 0abe 07b8 a2bd
00000330: c00b 16be 4290 a732 ba86 b2bc 6cd6 42be
00000340: 9990 34bd 81f1 2a3c 721a 093e f9e2 ab3b
00000350: 850b 7ebc a768 7b3d 124f b4b9 576b d0bc
00000360: 702f eebd 83d8 02bd 4e10 8abd 5505 f83d
00000370: 369e 92bd b149 f23d 1058 1dbd a0aa 8bbc
00000380: 08ad c7bd 6f53 563e a027 0d3e 2f62 973c
00000390: a307 02be 795e 18be d3cf 913d 2f61 6a3c
000003a0: e5e5 98bd e44c 803d 3219 423e 17db 523d
000003b0: bc0d ccbd 97c1 2a3d a0af 1b3d eebb bbbc
000003c0: ef71 b43d e5b0 b9bd 152d c9bd 1091 23a5
000003d0: c0eb 5abe 9508 9c3d c169 a8bd e141 f9bd
000003e0: 59e3 d0bc cf5f 823d 3b4b 4a3d c40d c6bd
000003f0: a22a 0cbe c213 bd3d 74d7 e13c ff48 6a3d
-0.14186528 0.113492616 -0.06876043 -0.02050666 0.011092796 -0.027718922 0.0806117 0.12312189
0.116421 1.3713784e-15 0.09268171 -0.11760608 0.032630038 -0.06347343 0.063526876 -0.26407522
-0.017038792 -0.01517587 -0.015244734 0.08266876 0.07055283 -0.172446 -0.0674756 -0.045513805
0.17770284 -0.008096509 -0.01079694 0.0643236 -0.00958872 0.1524654 0.028968643 -0.1431204
-0.015495006 -0.038298275 0.05455692 -0.062156416 0.10144096 0.05883931 0.058403954 -0.09148608
0.050865017 0.019054107 0.047772028 0.04696544 0.07609086 -0.010615603 -0.025840044 -0.08038166
0.058586482 0.065172575 0.042663682 -0.11193651 0.04272442 0.16314556 -0.12875043 0.0463771
0.006757239 0.0035835276 0.002454349 0.10323566 -1.1904934e-14 0.052834213 -0.14207113 -0.101458184
-0.076338366 -0.056371745 -0.05137866 -0.066485375 0.07524205 -0.017636506 -0.13314979 -0.16529156
0.15476185 -0.14552121 0.072392985 0.1159148 -0.1544941 2.5095443e-07 -0.06746098 0.10027097
-0.12204611 -0.16168933 0.071603656 0.08394598 0.020194856 -0.112068616 -0.00059330603 -0.09281848
0.12637895 -0.07370912 -0.002432999 -0.1388649 -0.052477133 -0.16196953 -0.09036454 0.05067825
-0.072549745 0.106104374 0.010583282 -0.036701344 -0.18323915 0.049030196 -0.14050442 -0.03692183
0.078879416 0.085691854 0.06791186 -0.17966014 -0.15594855 -0.13786028 -0.02929786 -0.038829353
0.0284072 -0.079512 -0.0977731 5.334475e-05 -0.09800069 0.14562365 -0.13827188 -0.15851252
0.0058533726 0.10442159 0.01040538 0.06402642 0.07618407 -0.118841164 -0.009090785 -0.057146776
-0.12430233 -0.07895286 0.020102406 0.060346555 -0.25387767 0.07857284 -0.10038282 -0.054058123
0.02397657 -1.3401171e-15 -0.064523354 -0.14143153 -0.03605315 -0.034658365 0.03728572 0.0854639
-0.0134243965 -0.040457148 0.14094332 -0.124508 -0.12042056 -0.050736316 0.06844679 0.22414556
-0.022406317 0.015311478 -0.013884958 0.06366083 -0.22020096 -0.19086374 -0.16938145 -0.102573566
0.18670726 0.04695959 0.058243018 0.08383046 0.20388827 0.080964975 -0.2410012 -0.121540576
0.016097078 0.091912374 -0.015799964 -0.09489064 0.13034046 -0.060307033 0.03569169 0.06487403
-0.032103278 -0.0681926 -0.106784575 -0.056668613 0.04547549 -0.07185733 0.037064813 -0.0405179
0.22100438 0.10148137 0.106585816 -0.09533771 -2.5430432e-17 0.04068093 0.14595905 -0.12290081
-0.07089568 0.16889063 0.039803714 0.053831443 -0.1336197 -0.07628937 0.020853942 0.092026494
-0.04024906 -0.025066018 -0.13557704 -0.07945257 -0.1465292 1.950696e-08 -0.021792758 -0.19027108
-0.04408321 0.010433556 0.13388994 0.005245563 -0.015505676 0.0613791 -0.00034391187 -0.025441809
-0.11630142 -0.031944763 -0.06741391 0.12110392 -0.071590826 0.11830462 -0.03841406 -0.017049134
-0.097498 0.20930265 0.13784647 0.018479435 -0.12698226 -0.14879788 0.071197174 0.014305397
-0.07465724 0.06264666 0.18954924 0.05147847 -0.09963557 0.041688528 0.038009286 -0.02291676
0.088107936 -0.09066943 -0.09823052 -1.4187145e-16 -0.21378994 0.076188244 -0.08223296 -0.121707685
-0.025499033 0.0636593 0.04938815 -0.09670594 -0.13688138 0.09232284 0.027568556 0.05719852

lin_layer.1.bias f4 [10]
00000000: c19a 583d 16aa 8dbc e4f4 87bd b0aa 4dbd
00000010: a7c1 993c 07f0 f73b 6e4d 78bd dedf 7d3b
00000020: 1e0b 66bc 1985 ea3c
0.05288196 -0.017293017 -0.06638506 -0.05021161 0.018769098 0.0075664553 -0.060620718 0.0038738172
-0.0140407365 0.028627919
